test2020/net_parameter.pkl (torch, 4895 bytes, 5 tensors)

linear1.weight f4 [20, 15]
0	0x3d1eaa9c	0.038736925
1	0x3e45b332	0.19306639
2	0xbe432de2	-0.19060472
3	0x3ea3bb52	0.31978852
4	0xbea4e853	-0.322085
5	0xbd3d7d3e	-0.04626202
6	0x3e8b36a1	0.27190116
7	0x3ca7b60a	0.020472545
8	0xbe3ffa1a	-0.1874775
9	0xbcfb079f	-0.030643282
10	0xbd7d9bfc	-0.061916336
11	0xbc4125a4	-0.011788759
12	0x3d73475a	0.059394218
13	0xbe0e1c82	-0.13878062
14	0xbdb26149	-0.08709962
15	0xbe5e19be	-0.21689507
16	0xbe028308	-0.12745297
17	0xbe106e3c	-0.14104551
18	0xc02d381b	-2.7065494
19	0x400007b8	2.000471
20	0xbe842e5f	-0.25816628
21	0xbefa39bc	-0.48872173
22	0xbf713588	-0.9422231
23	0x3f0056b6	0.5013231
24	0x3e82cf18	0.25548625
25	0xbe46567e	-0.19368932
26	0x3e995081	0.29944232
27	0xbf7e7906	-0.9940342
28	0xbdb99c1f	-0.09062981
29	0xbedb1d5a	-0.4279583
30	0xbef3bfcc	-0.47607267
31	0x3f2f6917	0.6851973
32	0x3e9e5c57	0.30929825
33	0xbfb521bf	-1.4150923
34	0x3f8f6708	1.1203318
35	0x3dda6093	0.10662951
36	0x3f901a0e	1.1257951
37	0xbdcdf56d	-0.10056577
38	0xbed379ca	-0.41303855
39	0xbe4109ec	-0.18851441
40	0x3f2801cf	0.6562776
41	0xbe70ef9d	-0.23528905
42	0x3f16962c	0.58822894
43	0x3e59de60	0.21276236
44	0xbd3db918	-0.046319097
45	0xbd6dccaa	-0.05805651
46	0xbe3b1bc0	-0.18272305
47	0x3ce03619	0.027369546
48	0xbe388be3	-0.18022113
49	0x3d102f98	0.03520164
50	0xbd8bfa12	-0.068348065
51	0xbe663b77	-0.22483622
52	0xbe6d6f97	-0.231871
53	0xbe6436f8	-0.22286594
54	0xbd2a9e5d	-0.041654933
55	0xbe9557e8	-0.2916863
56	0x3dde766f	0.10862433
57	0x3e00a48b	0.12562768
58	0x3ddb5928	0.107103646
59	0xbcdcd8e8	-0.026958898
60	0xbecea3cd	-0.40359345
61	0xbfbbf790	-1.4684925
62	0x3e42014f	0.18945812
63	0xbfd43a10	-1.6580219
64	0x3ee5fd0e	0.44919628
65	0xbe5239cf	-0.20529865
66	0xbe2402a7	-0.16016637
67	0x3f6d041a	0.92584383
68	0x3e846c43	0.25863847
69	0x3da88306	0.08228116
70	0xbeb2e7dd	-0.34942523
71	0xbf8f9ece	-1.1220338
72	0xbed5b506	-0.41739672
73	0xbd13f174	-0.03611894
74	0xbedbe07b	-0.42944703
75	0xbeaeb01c	-0.34118736
76	0xbfd6b3ec	-1.6773658
77	0x3eb8f937	0.36127636
78	0xbf61ce66	-0.88205564
79	0x3ef7aeda	0.4837559
80	0xbe371e2d	-0.17882605
81	0x3f38b811	0.72155863
82	0x3f838af8	1.0276785
83	0xbf1036cb	-0.5633361
84	0x3d0f7842	0.035026796
85	0xbd9901af	-0.07471024
86	0xbf765acc	-0.96232295
87	0xbf02ae85	-0.51047546
88	0x3e9dd53c	0.30826747
89	0xbe2db9ac	-0.1696536
90	0xbcf16162	-0.029465381
91	0x3faf6f49	1.3705837
92	0x3e1310d6	0.14361891
93	0x3ea31c28	0.3185742
94	0xbc4abcf6	-0.012374153
95	0x3d8635eb	0.06553253
96	0x3f5948a8	0.8487649
97	0xbe1ee135	-0.15515597
98	0xbf131873	-0.5745918
99	0xbd2ddad0	-0.042445004
100	0x3eea736a	0.4579118
101	0xbf1ecedf	-0.6203441
102	0x3f215487	0.63019603
103	0x3f1504f2	0.5821067
104	0xbdd0c35b	-0.10193511
105	0xbf2cea1f	-0.6754474
106	0xbf29e68c	-0.6636741
107	0x3eba21c9	0.363539
108	0xc007bfc4	-2.1210794
109	0x3f9f3cc0	1.2440414
110	0xbd42584d	-0.04744749
111	0xbf7ffe56	-0.9999746
112	0x3db580c9	0.088624544
113	0x3f1a726b	0.6033084
114	0x3db1d321	0.08682848
115	0xbe549ea3	-0.2076364
116	0x3e20913b	0.15680401
117	0xbd7939d9	-0.060846183
118	0xbdd6ef10	-0.10494816
119	0xbeca7caa	-0.39548236
120	0x3f132c7a	0.5748974
121	0x3fa35d7c	1.2762904
122	0xbf2677db	-0.65026635
123	0x400795b3	2.118512
124	0xbfcbedc6	-1.5931938
125	0x3d7d52c6	0.061846517
126	0xbed3f8cc	-0.41400754
127	0xbf3342c8	-0.70023775
128	0xbe3ab6bc	-0.1823377
129	0x3d796eaa	0.060896553
130	0xbf013084	-0.50464654
131	0xbc010c31	-0.007876442
132	0x3f44f6bc	0.76938987
133	0xbd248116	-0.04016217
134	0x3f02590e	0.50917137
135	0xbeb1abbd	-0.34701338
136	0xbf2b05bb	-0.6680562
137	0x3ee27a1c	0.44233787
138	0xbfe8c203	-1.8184208
139	0x3fd229e3	1.6419033
140	0x3ca054c7	0.019571675
141	0x3f01461e	0.50497615
142	0x3f55227e	0.83255756
143	0xbe5ddc6f	-0.2166612
144	0x3d5c74e0	0.0538224
145	0x3f616280	0.88040924
146	0xbf2265a6	-0.63436353
147	0xbeaa08f9	-0.3320997
148	0x3f053e80	0.5204849
149	0xbec154f5	-0.3776013
150	0xbea7d4e6	-0.32779616
151	0xbe93e782	-0.28887564
152	0x3f5d64bb	0.8648183
153	0xbffdd56b	-1.9830755
154	0x3fe5470f	1.791231
155	0x3e3cf275	0.18451865
156	0x3fb4eb2d	1.413427
157	0xbeab4861	-0.33453658
158	0x3e8834c5	0.2660276
159	0xbd58ab6c	-0.052897856
160	0x3f8fdac1	1.1238633
161	0xbdedcf66	-0.11611824
162	0x3e89e878	0.26935172
163	0xbbb3e5a6	-0.0054900227
164	0xbf0718ce	-0.52772224
165	0x3f4ea6ec	0.8072345
166	0x3fd05e34	1.6278749
167	0xbf33dd01	-0.702591
168	0x4020d2ff	2.5128782
169	0xc01f0e6a	-2.4852548
170	0xbc30559c	-0.010762598
171	0x3e3c0481	0.18361093
172	0xbefb5083	-0.49084863
173	0xbed9e504	-0.42557538
174	0x3c2c174a	0.010503599
175	0xbe454b3a	-0.19266978
176	0xbcc9793a	-0.024593938
177	0x3f2906e0	0.66026115
178	0x3d4ec8e8	0.050484568
179	0x3f25a065	0.6469787
180	0x3e7240a2	0.23657468
181	0xbdd858c6	-0.10563807
182	0xbe0a4853	-0.13504152
183	0xbdf0415e	-0.11731218
184	0xbe9eecc7	-0.31040022
185	0x3b65b273	0.003504899
186	0x3e1a5c0c	0.15074176
187	0x3dfc1bfa	0.123100236
188	0x3d5b9080	0.053604603
189	0xbe839e90	-0.2570691
190	0xbe2d8dc7	-0.16948615
191	0xbc54a230	-0.012978122
192	0xbdafdd76	-0.08587162
193	0xbe9338e4	-0.28754342
194	0xbe1ba24a	-0.15198627
195	0xbdcbf7be	-0.099593624
196	0x3d17c960	0.03705728
197	0x3e80a4e1	0.25125793
198	0x3e28a968	0.16470873
199	0x3e5fc754	0.21853381
200	0xbcea2d00	-0.02858591
201	0x3e19d602	0.15023044
202	0xbbc5ee40	-0.0060403645
203	0x3e315d74	0.17320806
204	0xbe7efa87	-0.24900256
205	0xbe540134	-0.20703584
206	0x3e23fe1e	0.16014907
207	0x3e13b314	0.14423782
208	0xbe5b00b2	-0.21386984
209	0xbe17a966	-0.14810714
210	0x3efa8ec6	0.48937052
211	0xbeb1c418	-0.3471992
212	0x3eb8bcef	0.36081645
213	0xbf29405a	-0.6611382
214	0x3f6b157e	0.9182967
215	0xbe2f6a7d	-0.17130466
216	0x3fbe2c9b	1.4857363
217	0xbf1d1699	-0.61362606
218	0xbfa3a2dc	-1.2784076
219	0xbe7a147c	-0.24421877
220	0x3f290a99	0.66031796
221	0xbeb8e63f	-0.36113164
222	0xbcbd3654	-0.023097195
223	0x3f149bf9	0.58050495
224	0xbe32bfa5	-0.17455919
225	0xbf082e0f	-0.5319528
226	0xbf3f5252	-0.74734986
227	0x3f41a87f	0.7564773
228	0xbfffdbdc	-1.9988971
229	0x3fc81805	1.563233
230	0x3d4dc334	0.05023499
231	0x3f86f6b9	1.0544044
232	0x3e571504	0.2100411
233	0x3ee9d03d	0.45666686
234	0x3d2608a5	0.040535588
235	0x3ed7c0b2	0.42139202
236	0x3e700fdb	0.23443548
237	0xbe147c60	-0.1450057
238	0x3d69b788	0.057059795
239	0xbf166628	-0.5874963
240	0x3ed4dabc	0.4157313
241	0x3fac14c0	1.3443832
242	0xbf824099	-1.0175964
243	0x400398bc	2.0561972
244	0xbfba902f	-1.4575251
245	0xbd249baf	-0.040187534
246	0xbea46e0f	-0.32115218
247	0xbe95a40d	-0.29226723
248	0xbebc83aa	-0.36819202
249	0x3d55a6b9	0.052160952
250	0xbdcf9990	-0.101367116
251	0x3e832efd	0.25621787
252	0x3ef93c93	0.48679027
253	0x3e5f9706	0.21834955
254	0x3efbc886	0.49176425
255	0x3f490944	0.78529763

linear1.bias f4 [20]
0	0xbe94d862	-0.29071337
1	0xbeaa7de2	-0.33299166
2	0xbe0575f9	-0.13033284
3	0xbd4d3e0f	-0.05010801
4	0xbf43a97f	-0.76430506
5	0xbebc3b8e	-0.36764187
6	0x3e9d0a1f	0.30671784
7	0xbebef20e	-0.37294048
8	0x3ec1bfae	0.37841552
9	0xbde30f01	-0.11086846
10	0x3cc87d2f	0.024473755
11	0x3e81d2d1	0.25356153
12	0xbe4ec18e	-0.20191023
13	0xbdbe297a	-0.09285255
14	0x3edff875	0.43744245
15	0xbd05dba5	-0.032680172
16	0x3e63a2e6	0.2223011
17	0x3f14690a	0.57972777
18	0xbe65ae0c	-0.22429675
19	0xbe2f8169	-0.1713921

linear2.weight f4 [15, 20]
0	0xbe8578d7	-0.26068756
1	0xbe86f5a7	-0.26359293
2	0xbe507e1e	-0.2036061
3	0x3e0d6bbb	0.13810627
4	0xbea3d025	-0.3199474
5	0xbecced85	-0.40024963
6	0xbdd84d82	-0.105616584
7	0x3cc0d088	0.023536935
8	0xbbd471dc	-0.0064832997
9	0xbecbef26	-0.39830893
10	0xbe43df1c	-0.19128078
11	0x3d26edec	0.040754244
12	0xbd717374	-0.058947995
13	0x3cfabe80	0.030608416
14	0x3c1a2a17	0.009409449
15	0x3d9ccac8	0.07655865
16	0x3ca324c1	0.019914987
17	0xbdd9bba1	-0.106314905
18	0xbdeb7d87	-0.11498552
19	0xbeb67bd6	-0.35641354
20	0xbe21fce0	-0.1581912
21	0xbee2a9e8	-0.44270253
22	0x3db1d522	0.0868323
23	0xbe66aca9	-0.22526802
24	0x3e75329f	0.23945092
25	0x3e6e6767	0.23281632
26	0xbd08fcdc	-0.03344427
27	0x3d8cce44	0.068752795
28	0xbd53aa5e	-0.051676147
29	0x3e1edc6f	0.15513776
30	0x3e5c912d	0.21539755
31	0x3d7915a9	0.060811672
32	0x3e4ce1b7	0.20007978
33	0x3d8166e4	0.06318453
34	0x3ee6d698	0.45085597
35	0x3ceb3320	0.028710902
36	0xbe152329	-0.14564194
37	0xbe9f1d62	-0.31077105
38	0x3e7d27d4	0.24722224
39	0x3e52e508	0.20595181
40	0xbd5e5c8c	-0.05428748
41	0xbe5a61f5	-0.2132643
42	0x3bf0c9e5	0.0073482865
43	0x3dafe558	0.08588666
44	0x3cf56da2	0.029959504
45	0xbe0f857e	-0.14015767
46	0x3d6ce3b3	0.05783434
47	0x3da296f9	0.07938952
48	0xbe88b05a	-0.26697046
49	0xbeb9650e	-0.3620991
50	0xbe2f7a5d	-0.17136522
51	0xbd1ed011	-0.038772646
52	0x3d9dace6	0.076989934
53	0x3e4c118c	0.19928569
54	0x3de7e17c	0.113223046
55	0x3d79b11a	0.060959913
56	0xbe62c801	-0.22146608
57	0xbd26df8e	-0.040740542
58	0x3da8afe1	0.08236671
59	0xbdad0331	-0.08447874
60	0x3e364caa	0.17802683
61	0xbdd58f57	-0.104277305
62	0x3dc02a55	0.09383074
63	0x3c4ade41	0.012382091
64	0x3dcbe0b2	0.099549666
65	0x3ebed597	0.3727233
66	0x3c48fb09	0.012266883
67	0xbe44cdae	-0.19219086
68	0xbe917047	-0.28405973
69	0x3eb59be4	0.35470498
70	0xbe5edd69	-0.21764149
71	0x3c94bc6e	0.018156257
72	0xbd8c98fe	-0.068651184
73	0xbe2c4f46	-0.16827115
74	0x3f5c9d97	0.86177963
75	0xbd8d02c5	-0.06885294
76	0xbd801213	-0.062534474
77	0xbea536f1	-0.3226848
78	0x3ab59887	0.0013854661
79	0xbeb0df27	-0.34545252
80	0x3e55a818	0.20864904
81	0xbe934e63	-0.28770742
82	0xbd50f1ac	-0.051011726
83	0xbdabf66b	-0.0839661
84	0xbe487885	-0.19577225
85	0xbdaab7a7	-0.0833581
86	0x3dc83edc	0.097776145
87	0xbe39d1a3	-0.18146376
88	0x3e5d774a	0.21627536
89	0xbf0b0a35	-0.5431245
90	0xbedcad4a	-0.4310096
91	0x3efc15be	0.49235338
92	0xbd7f01bc	-0.062257513
93	0x3dccac54	0.099938065
94	0xbde20fa2	-0.11038138
95	0xbeb79143	-0.35853013
96	0x3dfe97f3	0.12431326
97	0x3e90ad10	0.28257036
98	0xbdbff88c	-0.093735784
99	0xbe93ff4f	-0.28905722
100	0xbc772b34	-0.015085984
101	0xbec45356	-0.3834483
102	0x3e8dcc77	0.27695057
103	0x3e1d9e80	0.15392494
104	0x3e10bf0c	0.14135379
105	0x3e1fe9bb	0.15616505
106	0x3e4631ce	0.19354936
107	0xbd1abb44	-0.037776247
108	0x3d2005df	0.0390681
109	0x3e8f9bf2	0.28048664
110	0x3e6543c8	0.22389138
111	0xbe818dd2	-0.25303513
112	0xbc33d835	-0.010976841
113	0xbdc41670	-0.09574592
114	0x3f36ff8e	0.71483696
115	0x3df1f26c	0.118138164
116	0xbd5703f9	-0.052494023
117	0xbec6a2f1	-0.3879619
118	0xbdcf0cfe	-0.101099
119	0x3e409141	0.1880541
120	0xbe3e43e2	-0.18580583
121	0xbd323089	-0.043503318
122	0xbe670d5f	-0.22563694
123	0x3e21e8f8	0.15811527
124	0xbcf0c6e7	-0.029391719
125	0xbe47143a	-0.1944131
126	0x3d2f9ab1	0.042872135
127	0xbe591ef9	-0.21203221
128	0xbb80d24f	-0.0039313207
129	0xbecca860	-0.3997221
130	0xbe884d8c	-0.26621664
131	0xbe77b8ec	-0.24191636
132	0xbc200f7d	-0.009769318
133	0xbe595d05	-0.2122689
134	0xbdbe658f	-0.092967145
135	0x3d590290	0.05298096
136	0xbe292366	-0.1651741
137	0xbe270c00	-0.16313171
138	0xbd876261	-0.06610561
139	0xbc72feb0	-0.01483123
140	0xbdc6196f	-0.0967282
141	0xbe93309d	-0.28748026
142	0x3d56375e	0.052298896
143	0x3dde88c8	0.10865933
144	0xbe364f8f	-0.17803787
145	0xbcb5fa2f	-0.022214023
146	0x3dc43f5d	0.09582398
147	0xbd13aeeb	-0.036055487
148	0x3dd80456	0.10547702
149	0xbe8e2f97	-0.27770683
150	0xbe742989	-0.2384397
151	0x3ed6a1b8	0.41920257
152	0xbd114440	-0.03546548
153	0x3e25d196	0.16193232
154	0x3e52f93d	0.2060289
155	0xbdc0ef7e	-0.094206795
156	0x3d2ad27a	0.041704632
157	0x3e86aaae	0.26302093
158	0x3b69f100	0.0035696626
159	0xbee07679	-0.43840387
160	0x3ddc2ad2	0.10750355
161	0xbad8ec97	-0.0016550001
162	0xbe58396c	-0.21115655
163	0x3e1b2315	0.15150101
164	0xbe86fcf7	-0.26364872
165	0xbe086fe5	-0.13323934
166	0x3e251c08	0.16123974
167	0xbe62f33e	-0.22163102
168	0xbe5b29e6	-0.21402702
169	0xbe443e83	-0.19164471
170	0x3eefef68	0.4686234
171	0xbe174e1c	-0.1477589
172	0xbe4a6f0e	-0.19768927
173	0x3dfeeed0	0.124478936
174	0x3f4f4333	0.8096191
175	0x3d09c6c9	0.033636842
176	0x3db4b6c3	0.088239215
177	0x3dfbe406	0.122993514
178	0xbe258e12	-0.16167477
179	0x3d6f7263	0.058458697
180	0xbe43420a	-0.1906816
181	0xbe6ddc22	-0.23228505
182	0x3d8df398	0.069312274
183	0xbd987da4	-0.07445839
184	0xbeae6ab1	-0.34065774
185	0xbdc676a3	-0.09690597
186	0xbc997d1a	-0.01873641
187	0xbe3e51d2	-0.185859
188	0x3db1ab23	0.0867522
189	0xbe60dd63	-0.21959452
190	0xbeac61c4	-0.3366834
191	0x3e3194c6	0.17341909
192	0x3d94ceb4	0.07265988
193	0xbddbc306	-0.10730557
194	0xbecff6ff	-0.4061813
195	0xbf035b3c	-0.5131109
196	0x3e323ea3	0.17406707
197	0x3eec06e6	0.46099013
198	0xbc07fa76	-0.008299461
199	0xbe4fd174	-0.20294744
200	0x3d989e64	0.074520856
201	0x3dfbe021	0.122986086
202	0x3dfb6ace	0.12276231
203	0x3c40e68f	0.011773719
204	0xbe0187fd	-0.12649532
205	0xbc549935	-0.0129759805
206	0x3cd2b299	0.025719928
207	0xbe494b65	-0.19657667
208	0xbe4dc2b6	-0.20093808
209	0x3d395c44	0.045254007
210	0x3e15fa4f	0.14646266
211	0xbd8aa981	-0.067706116
212	0x3e062a6b	0.13102119
213	0xbe1c2678	-0.1524905
214	0x3d8add97	0.06780546
215	0xbe5aa8ae	-0.21353409
216	0xbe84147f	-0.25796887
217	0x3e09b6a5	0.1344858
218	0x3dfe2b32	0.124105826
219	0xbe1fff24	-0.15624672
220	0xbbd00767	-0.0063485387
221	0x3d572ff6	0.052535973
222	0xbe3e4b73	-0.18583469
223	0xbcdd3388	-0.027002111
224	0xbe376180	-0.17908287
225	0xbe5e6f06	-0.2172204
226	0xbdb8bbcb	-0.09020194
227	0xbe631e0d	-0.22179432
228	0xbee7aef6	-0.45250672
229	0x3b2b9af1	0.0026184882
230	0x3d44e53b	0.048070174
231	0xbe2d1a29	-0.1690451
232	0xbba41f40	-0.005008608
233	0xbe0bf5ec	-0.1366803
234	0xbd9c39c3	-0.07628205
235	0xbeafb07b	-0.3431433
236	0xbe561e2c	-0.20909947
237	0x3ca68678	0.020327792
238	0xbd998cbd	-0.07497547
239	0xbedb0fbf	-0.4278545
240	0xbd95f893	-0.073228024
241	0xbe08d574	-0.13362676
242	0x3d0c983b	0.034324866
243	0xbd59eb54	-0.053202942
244	0x3da5b8b0	0.08091867
245	0x3e0ea9a5	0.13931902
246	0xbeb12150	-0.34595728
247	0xbda0322c	-0.078220695
248	0x3c5e0da1	0.013553054
249	0x3c315912	0.010824459
250	0xbe62415f	-0.2209525
251	0xbe679c51	-0.22618224
252	0x3b5efe00	0.0034025908
253	0xbdfc8016	-0.12329118
254	0xbe9d7d4c	-0.30759656
255	0xbe8771e7	-0.26454088

linear2.bias f4 [15]
0	0xbd8b3acf	-0.06798326
1	0x3e4e1c21	0.20127918
2	0x3cecf296	0.028924268
3	0xbde88916	-0.11354272
4	0x3f07838c	0.529351
5	0xb90a9d9e	-0.00013219423
6	0xbe00a8de	-0.12564418
7	0x3e890f7f	0.26769635
8	0x3e4f4ae9	0.2024342
9	0x3eb3cd45	0.35117546
10	0xbe6fac57	-0.23405586
11	0xbc9deb3f	-0.019277213
12	0xbe8484ea	-0.25882655
13	0xbe42fa06	-0.19040689
14	0xbed2a010	-0.41137743

linear3.weight f4 [1, 15]
0	0x3dbaf3b0	0.09128511
1	0xbe385b9a	-0.18003693
2	0x3d8630a5	0.06552247
3	0xbe67516a	-0.22589651
4	0x3e91daf9	0.28487375
5	0xbe8e821e	-0.27833647
6	0xbc8dcf13	-0.017310655
7	0x3e0462cf	0.12928317
8	0xbdbcf87b	-0.092270814
9	0x3e1c3ec7	0.15258323
10	0x3d32f827	0.043693688
11	0xbd435bef	-0.047695097
12	0xbdd10759	-0.102064796
13	0x3d043d91	0.032285277
14	0x3d3d1113	0.04615886
