test2020/net_parameter.pkl (torch, 4895 bytes, 5 tensors)

linear1.weight f4 [20, 15]
0	0x3d04f3f9	0.032459233
1	0x3da3cbc1	0.07997847
2	0xbd57a5f9	-0.05264852
3	0x3e35adbc	0.17742056
4	0xbd3d71ef	-0.046251234
5	0xbd2ec284	-0.042665973
6	0xbd2aa447	-0.041660573
7	0x3e2a0e0b	0.1660692
8	0xbdff2fd0	-0.124602914
9	0xbcd41639	-0.025889503
10	0x3d8f3ba3	0.06993797
11	0xbde7d6f2	-0.113202944
12	0xbe78f4dd	-0.24312158
13	0xbcabf167	-0.020989133
14	0x3d9378d0	0.072007775
15	0x3fcb1ba0	1.5867805
16	0x3f1a1cb1	0.6020003
17	0xbfa4774f	-1.284891
18	0x40715bc9	3.7712271
19	0xc0329542	-2.79036
20	0xbe374896	-0.17898783
21	0x3f91e65c	1.1398425
22	0xbf9e0533	-1.2345337
23	0xbff03b63	-1.8768123
24	0xbe8b21ec	-0.27174318
25	0xbf81ae7b	-1.0131372
26	0x3b0791ee	0.0020686346
27	0x3fc196f5	1.5124193
28	0x3e32a803	0.17446904
29	0x4005efbd	2.0927575
30	0xbd180b5d	-0.037120212
31	0xbe2e4ae6	-0.17020759
32	0xbe5c5498	-0.21516645
33	0x3a928100	0.0011177361
34	0xbe64d312	-0.22346142
35	0xbcf7188e	-0.030163076
36	0x3c802480	0.015642405
37	0x3e692062	0.2276626
38	0xbe6dc2ce	-0.23218843
39	0xbe737665	-0.23775633
40	0x3d86bd0c	0.065790266
41	0x3dc18728	0.09449607
42	0x3dd13f28	0.10217124
43	0xbe0f8e86	-0.14019212
44	0x3e163388	0.14668095
45	0x3d1d2750	0.03836757
46	0x3ca0a430	0.01960954
47	0xbd24e174	-0.04025407
48	0xbd2973f8	-0.041370362
49	0xbe015571	-0.1263025
50	0xbdef83e8	-0.11695081
51	0xbe41a046	-0.18908796
52	0x3da79b70	0.08183944
53	0xbd808ec2	-0.06277229
54	0xbe56f5a8	-0.20992148
55	0x3e3a334e	0.18183634
56	0x3d899908	0.067186415
57	0xbd724be4	-0.059154406
58	0xbd218534	-0.039433673
59	0xbe20b3f6	-0.1569365
60	0xbf5bf277	-0.85916847
61	0xc07f687f	-3.990753
62	0x3da94cea	0.08266623
63	0xbfb12e92	-1.3842337
64	0xbdfcc04d	-0.12341366
65	0xbf45af5b	-0.77220696
66	0x3efb1128	0.49036527
67	0x40544a87	3.3170488
68	0x3fb9d746	1.4518821
69	0x3c413deb	0.011794548
70	0xbe0339dc	-0.1281504
71	0xc08aac48	-4.3335304
72	0xc06ccd0d	-3.7000153
73	0x3fb94a7b	1.4475855
74	0x3c938eea	0.018012483
75	0x4010078e	2.250461
76	0x406ab39f	3.6672132
77	0xc01acee1	-2.418877
78	0x40b429f1	5.63012
79	0xc0ea40ef	-7.3204265
80	0x3d542e63	0.05180205
81	0x3f847a29	1.034978
82	0x3e2578b5	0.16159327
83	0xbf85f740	-1.046608
84	0xbdb4af1d	-0.08822463
85	0xbf8e9da1	-1.1141855
86	0x3f8f7611	1.1207906
87	0x3fa90d80	1.3207245
88	0x3e607dd7	0.21923004
89	0x4087c1ae	4.2423925
90	0xc05ba7a9	-3.4321082
91	0x40ba36fa	5.819211
92	0x3f7c1aaf	0.98478216
93	0xbef92276	-0.48659104
94	0x402112c3	2.5167701
95	0xbf0df3aa	-0.55449927
96	0xc04202f0	-3.0314293
97	0xbe12697f	-0.14298056
98	0x400f3aba	2.2379594
99	0xbe26482a	-0.16238466
100	0x3d3fb3b6	0.046802245
101	0x400586e5	2.0863583
102	0xbc4ff327	-0.012692249
103	0x3fd3906b	1.6528448
104	0x3ebb2cf6	0.3655774
105	0xbf28e926	-0.65980756
106	0xbf45a513	-0.7720501
107	0x3eced9bc	0.40400493
108	0xc01bf56d	-2.4368546
109	0x400dce15	2.2157032
110	0xbe0c5caf	-0.13707231
111	0x4027c125	2.6211636
112	0x3f9f884f	1.2463473
113	0xbeb55f17	-0.3542411
114	0xbd7fd832	-0.06246204
115	0x3f8cadde	1.099056
116	0x3f9fb918	1.2478361
117	0xbf90611b	-1.1279634
118	0xbf9a2125	-1.2041365
119	0xbf947ad3	-1.1599983
120	0x4049d856	3.153829
121	0x3f1ffe21	0.62497145
122	0x3f1357c5	0.575558
123	0x3f4567d3	0.7711155
124	0xbeb013c2	-0.34390074
125	0xc070258e	-3.7522922
126	0x3fbe6fee	1.4877908
127	0xbd1f868d	-0.038946677
128	0x405fa5b7	3.4944894
129	0xbedb7d92	-0.4286924
130	0x3f456c7a	0.7711865
131	0xbfea1528	-1.8287706
132	0xbce93be6	-0.028470945
133	0x4009ace7	2.1511781
134	0x3d02b058	0.031906456
135	0x3e1853db	0.14875738
136	0x3eda4db4	0.42637408
137	0xbdc7947d	-0.09745119
138	0x3e7a94a5	0.24470766
139	0xbee86778	-0.4539144
140	0xbdbf0b53	-0.09328332
141	0xbc9cfece	-0.01916447
142	0x3dfe4b80	0.12416744
143	0xbe8ee852	-0.2791162
144	0xbda56d2e	-0.08077465
145	0xbed5488b	-0.41656908
146	0x3ebc1cae	0.3674063
147	0x3eb42f95	0.35192552
148	0xbef1bb6d	-0.47213307
149	0x3cbe0b0f	0.023198633
150	0x3dcb6f97	0.099333934
151	0xbe448d4d	-0.19194527
152	0x3d0619a4	0.032739297
153	0xbe457d6f	-0.1928613
154	0xbe09e4e3	-0.1346622
155	0xbea09a36	-0.31367654
156	0xbe8f1a7e	-0.279499
157	0x3dbf64b0	0.093453765
158	0xbd101034	-0.035171703
159	0xbc984761	-0.018588724
160	0xbe13473c	-0.14382643
161	0x3e21fd42	0.15819266
162	0xbe305e09	-0.17223372
163	0xbe1d8513	-0.15382795
164	0x3c758b40	0.014986813
165	0xc0420cac	-3.0320234
166	0x3f9c97b5	1.2233797
167	0xbd86432d	-0.065557815
168	0xbfc46563	-1.5343441
169	0x3f979375	1.1841875
170	0x3ea08492	0.31351143
171	0x3fbf9294	1.4966607
172	0x3f8b0cb6	1.0863254
173	0xc02f5016	-2.739263
174	0xbe9656f9	-0.2936323
175	0x3fbc9c3a	1.4735177
176	0x3fee82c9	1.8633662
177	0xbf4b6460	-0.79450035
178	0xbf652259	-0.89505535
179	0xbff2b4e9	-1.8961459
180	0xbe4cc252	-0.19996002
181	0x3e6af446	0.22944745
182	0x3bef1b69	0.0072969687
183	0xbe821973	-0.2541004
184	0x3d70b9a7	0.058770802
185	0xbd3ef09a	-0.046616174
186	0xbe75d1df	-0.2400584
187	0xbe5deee6	-0.21673164
188	0xbd29e3d4	-0.04147704
189	0xbe56a329	-0.20960678
190	0x3dda394e	0.10655461
191	0xbe402609	-0.1876451
192	0x3e0420b4	0.129031
193	0xbde8c1e2	-0.11365105
194	0x3e7b2162	0.24524453
195	0xc039ff7c	-2.9062185
196	0x40c0766d	6.0144563
197	0xbf992894	-1.1965508
198	0xc088119b	-4.252149
199	0x40326360	2.7873154
200	0xbe1de0e0	-0.15417814
201	0xbf9a1e1d	-1.204044
202	0x3fd74f66	1.6821105
203	0xbfc778d9	-1.5583755
204	0xbd1d62ed	-0.03842442
205	0x4017781e	2.3667064
206	0xbfc5c827	-1.5451707
207	0xbd094698	-0.03351459
208	0x3f8885e1	1.0665857
209	0xbebdd640	-0.37077522
210	0xbf4153be	-0.75518405
211	0x3e9674ad	0.29385892
212	0x3f0742f2	0.52836525
213	0x3fc21519	1.5162688
214	0xbf6a7903	-0.915909
215	0xbea87bcb	-0.32906947
216	0x3f027a44	0.5096781
217	0xc0080078	-2.1250286
218	0xbf9b7a3c	-1.2146678
219	0xbe6e924b	-0.23297994
220	0x3f198dbd	0.599819
221	0x3f01cbe2	0.50701725
222	0x3ff5cc50	1.9202976
223	0xc008910c	-2.133853
224	0x3e06f9f9	0.13181295
225	0x4046f636	3.1087775
226	0xc05f6a99	-3.4908812
227	0x3f3c5410	0.7356577
228	0xc007520c	-2.1143827
229	0x3f876385	1.0577246
230	0xbffd5eb1	-1.9794523
231	0x3f909eed	1.12985
232	0xbfb1373e	-1.3844984
233	0xc042a06c	-3.0410414
234	0xbe6af8d9	-0.2294649
235	0x404cd247	3.2003343
236	0x3f09d5a0	0.5384159
237	0x3f052c42	0.5202066
238	0x3ecf36a5	0.40471378
239	0x3e06a530	0.13148952
240	0xbe1a3d71	-0.150625
241	0x3ca57796	0.020198625
242	0xbe985045	-0.2974874
243	0xbe3d538f	-0.18488906
244	0xbe385b35	-0.18003543
245	0xbe9589de	-0.29206747
246	0xbcc7ba7e	-0.024380919
247	0xbd7b3c0e	-0.06133657
248	0x3e2ef0b6	0.17084011
249	0xbd1f2ff5	-0.038864095
250	0xbdb7c757	-0.08973568
251	0xbeafc375	-0.3432881
252	0x3dac7ca3	0.0842221
253	0x3d2e6b38	0.04258272
254	0xbdcc50fa	-0.099763826
255	0xc04af20b	-3.1710231

linear1.bias f4 [20]
0	0xbdcd8029	-0.1003421
1	0x3eedcd58	0.46445727
2	0xbe8021d3	-0.25025806
3	0xbe6ae2f4	-0.22938138
4	0xbfc614da	-1.5475113
5	0x3f9d060a	1.2267468
6	0x40062af3	2.0963714
7	0xbebe2815	-0.37139955
8	0x3ee74115	0.4516684
9	0xbbfdd6df	-0.007746562
10	0xbe240bdb	-0.16020148
11	0x3c98d56c	0.018656455
12	0xbe1021b9	-0.14075364
13	0x3e8c6da3	0.27427396
14	0x3ea0faf4	0.31441462
15	0x3f1aa474	0.60407186
16	0xbe9ce2e0	-0.30641842
17	0xbebd52ef	-0.36977336
18	0xbf2cd9e4	-0.67519975
19	0x3f04c759	0.5186668

linear2.weight f4 [15, 20]
0	0x3dd3ee91	0.10348237
1	0xbd44a563	-0.048009288
2	0x3e6c7c5c	0.23094314
3	0x3d9d45dc	0.0767934
4	0x3ee81289	0.4532664
5	0x3e89a491	0.26883367
6	0xbec3dc7d	-0.38254157
7	0xbf05be60	-0.52243614
8	0x3f1a7410	0.6033335
9	0xbd9a43b8	-0.075324476
10	0x3e077300	0.13227463
11	0xbecd0909	-0.40045956
12	0x3cba8ef3	0.022773242
13	0xbeb9c78c	-0.36285055
14	0xbe959191	-0.2921262
15	0xbe4a624c	-0.1976406
16	0x3d91481b	0.07093831
17	0xbea474bb	-0.32120308
18	0xbed63259	-0.41835287
19	0xbeeca5fe	-0.46220392
20	0x3d00bd77	0.031430688
21	0xbe95af87	-0.2923548
22	0x3e077bfe	0.13230893
23	0xbe45d611	-0.19319941
24	0xbeab4d72	-0.33457524
25	0x3f077215	0.5290845
26	0x3f122328	0.57084894
27	0xbe1dc1ba	-0.15405932
28	0xbeeb86e0	-0.4600134
29	0x3d3aa111	0.04556376
30	0xbdf0d65c	-0.11759636
31	0xbf5e6155	-0.86867267
32	0xbe0fa2e3	-0.1402698
33	0x3e146fa3	0.14495711
34	0xbea770b1	-0.32703164
35	0xbe680a89	-0.22660269
36	0x3e2679fa	0.16257468
37	0xbf47859c	-0.77938247
38	0xbe9d8c01	-0.30770877
39	0xbe69816c	-0.22803277
40	0x3d093aaf	0.03350323
41	0x3e791f8f	0.24328445
42	0xbd88adf4	-0.06673804
43	0xbdf8a842	-0.12141468
44	0xbf24a3be	-0.6431235
45	0x3f2db109	0.6784826
46	0x3f1a540b	0.6028449
47	0xbf935690	-1.1510792
48	0xbf9e7e67	-1.2382325
49	0x3cb088d6	0.021549623
50	0xbdb04d6b	-0.08608516
51	0xbf467afd	-0.77531415
52	0x3db99e98	0.090634525
53	0x3dc625ed	0.096752025
54	0xbc938795	-0.018008986
55	0xbefe5723	-0.49675855
56	0x3cf5dc78	0.030012354
57	0xbf582ab1	-0.8444014
58	0x3cf1a8ac	0.029499374
59	0x3cd2b82c	0.025722586
60	0xbe4be99e	-0.19913337
61	0xbe542213	-0.20716123
62	0x3e56d54a	0.20979801
63	0x3c020390	0.00793542
64	0xbe5046f7	-0.20339571
65	0xbcf0b786	-0.029384386
66	0xbe641c58	-0.22276437
67	0xbead5ef1	-0.33861497
68	0x3ccf7778	0.025325522
69	0x3d652100	0.055939674
70	0xbd303c00	-0.04302597
71	0xbde67bf7	-0.11254113
72	0x3df02b04	0.117269546
73	0xbdb232d0	-0.08701098
74	0x3bb0aaaf	0.005391441
75	0xbe05e83a	-0.13076869
76	0x3e29ac3f	0.16569613
77	0xbdb7785a	-0.08958502
78	0xbec1962a	-0.3780988
79	0xbec692df	-0.3878393
80	0xbdefe536	-0.117136404
81	0x3d2f154d	0.042744923
82	0xbde6153e	-0.112345204
83	0xbe302025	-0.17199762
84	0x3efcd216	0.49379033
85	0xbf620db5	-0.88302165
86	0xbfa568ce	-1.2922609
87	0xbe72cf1f	-0.23711823
88	0x3f5fb90a	0.8739172
89	0x3dffe9c0	0.12495756
90	0x3ddac10c	0.10681352
91	0x3d7e88bf	0.06214213
92	0x3c5a994b	0.013342212
93	0x3f25ee2b	0.6481654
94	0xbe58a004	-0.21154791
95	0x3fe572d8	1.7925673
96	0x3c67edfb	0.01415586
97	0x3e8bfa4d	0.27339402
98	0x3e6af83c	0.22946256
99	0xbf1feaba	-0.6246754
100	0x3d44c4d0	0.048039258
101	0xbde8c509	-0.113657065
102	0x3e6e5c28	0.23277342
103	0xbe0218ed	-0.12704821
104	0xbd5bdc90	-0.05367714
105	0xbe659868	-0.2242142
106	0xbd6a7eae	-0.057249717
107	0xbd9d3631	-0.07676352
108	0xbde5a8e1	-0.11213852
109	0x3d802544	0.06257108
110	0xbdf3d22e	-0.11905323
111	0x3d7c129c	0.061541185
112	0x3dcafc06	0.09911351
113	0xbe3ba4c1	-0.18324567
114	0x3d22abd6	0.039714657
115	0xbeafcd37	-0.34336254
116	0x3dc118ef	0.09428584
117	0xbeaced97	-0.33775017
118	0xbeab4709	-0.33452633
119	0xbe91bb89	-0.2846339
120	0xbd2a17a3	-0.041526448
121	0x3df6dda0	0.1205399
122	0xbe258f39	-0.16167916
123	0xbe5a7751	-0.21334578
124	0xbe61126c	-0.21979684
125	0x3f346682	0.70468915
126	0x3ef1e959	0.47248343
127	0xbf35c2c1	-0.71000296
128	0xbfd37c3e	-1.6522291
129	0xbd987e31	-0.07445944
130	0x3d3ae091	0.04562432
131	0xbef8efa4	-0.4862033
132	0xbccd9cdb	-0.025099209
133	0xbee9f67d	-0.45695868
134	0x3e947f04	0.29003155
135	0x3e9e4b4b	0.3091682
136	0x3e6a1a72	0.2286165
137	0xbf41117c	-0.75417304
138	0x3e1d40c2	0.15356734
139	0x3f2d1372	0.67607796
140	0x3e1752f7	0.14777742
141	0xbe6074eb	-0.219196
142	0xbdb20068	-0.08691484
143	0x3df669c0	0.12031889
144	0xbecb3341	-0.3968754
145	0xbe2040f5	-0.15649779
146	0xbf1af38f	-0.6052789
147	0xbf0aac8e	-0.5416955
148	0xbf5afe75	-0.8554452
149	0x3c0c9ca5	0.008582269
150	0xbe25cf44	-0.16192347
151	0xbe9c7561	-0.30558303
152	0xbc84b498	-0.016199395
153	0xbef6ee47	-0.48228666
154	0xbd52d29e	-0.05147039
155	0xbf59c0bc	-0.85059714
156	0xbe05f38f	-0.13081191
157	0xbef0eba5	-0.47054783
158	0x3ec3146c	0.38101518
159	0xbdfcf4ba	-0.123513654
160	0x3d5d0938	0.05396387
161	0xbe5b13fc	-0.21394342
162	0xbdbdc03e	-0.09265183
163	0x3c858cd0	0.016302496
164	0xbda6d324	-0.08145741
165	0xbea0d31f	-0.31411073
166	0xbe45df86	-0.19323549
167	0xbe823842	-0.25433546
168	0x3d5badf8	0.053632706
169	0xbe34873a	-0.1762971
170	0xbe3577a4	-0.1772142
171	0xbe9849a4	-0.29743683
172	0xbe31e3df	-0.17372082
173	0xbe094f43	-0.13409142
174	0xbd8ee73d	-0.06977699
175	0xbee12a4f	-0.4397759
176	0xbe554267	-0.20826112
177	0xbf07bcad	-0.5302227
178	0xbeaf0174	-0.34180796
179	0xbf031a39	-0.5121189
180	0xbe035fc7	-0.12829505
181	0x3f20f776	0.62877595
182	0x3daa4fcf	0.083160035
183	0xbd953da8	-0.072871506
184	0x3f135cdf	0.57563585
185	0x3ec89136	0.39173287
186	0x3f5869bb	0.8453633
187	0xbebf9e17	-0.374253
188	0x4040e689	3.0140707
189	0xbd2555cf	-0.040365037
190	0x3d2d5fd1	0.042327706
191	0xbe75e4fd	-0.24013133
192	0x3d63e40d	0.055637408
193	0xbe81789e	-0.25287336
194	0xbf0d3503	-0.55159014
195	0xbf2012f6	-0.6252893
196	0x3e2d6296	0.16932139
197	0xbf229635	-0.6351045
198	0x3bbbe53d	0.0057341144
199	0xbf1dd472	-0.6165229
200	0x3dd4205c	0.103577346
201	0xbeab8e5c	-0.3350705
202	0x3e1522ca	0.14564052
203	0x3df21954	0.11821237
204	0xbf91ae12	-1.1381247
205	0x3ee93bbf	0.45553395
206	0x3fc3b4c3	1.5289539
207	0xbf4332ee	-0.7624959
208	0xc00a5641	-2.1615145
209	0xbb7ff211	-0.0039054195
210	0x3d0e9898	0.034813493
211	0xbf995c05	-1.1981207
212	0xbcba1135	-0.022713283
213	0x3e39ba83	0.18137555
214	0xbf0d743c	-0.55255485
215	0xbeb2b98a	-0.3490718
216	0xbd97cbf1	-0.074119456
217	0xbf8973c8	-1.0738459
218	0xbe1dd1a4	-0.15412003
219	0x3e50ade5	0.20378835
220	0x3e028bd9	0.1274866
221	0x3c825c03	0.015913015
222	0xbe0b98e0	-0.13632536
223	0xbe042349	-0.12904085
224	0xbe8df379	-0.27724817
225	0xbe73362f	-0.23751138
226	0xbe295474	-0.16536123
227	0xbf05bc9e	-0.5224093
228	0x3e4f63b2	0.20252874
229	0xbd80958a	-0.06278522
230	0xbe246ac8	-0.16056359
231	0xbe894535	-0.26810613
232	0xbdb6d852	-0.089279786
233	0xbe37523a	-0.1790246
234	0xbd826f3d	-0.06368873
235	0xbf18f43f	-0.5974769
236	0xbd95a7ad	-0.07307372
237	0xbe67c0e2	-0.22632173
238	0xbec8dc8f	-0.39230773
239	0xbe04d32e	-0.12971184
240	0xbd8c179c	-0.06840441
241	0xbb5f46f4	-0.003406939
242	0xbdb11b44	-0.08647779
243	0x3e458490	0.1928885
244	0xbdda42d2	-0.10657276
245	0xbda67d18	-0.081293285
246	0xbe8070c0	-0.2508602
247	0xbe25403c	-0.16137785
248	0xbc18a051	-0.009315566
249	0xbdd5fc3f	-0.10448503
250	0xbdc3b4b2	-0.09555949
251	0xbe595d92	-0.212271
252	0x3e796228	0.2435385
253	0xbdef4774	-0.116835505
254	0xbe01f067	-0.12689362
255	0xbeca2f35	-0.3948914

linear2.bias f4 [15]
0	0xbe82e796	-0.2556731
1	0xbf80de6f	-1.0067881
2	0xbf09d965	-0.5384734
3	0xbe98faad	-0.2987875
4	0x3f2dffb6	0.6796831
5	0xbf7f92b1	-0.9983321
6	0xbda535a7	-0.08066874
7	0x3ee948a7	0.45563242
8	0xbf3c33ab	-0.7351634
9	0xbf456075	-0.77100307
10	0x3db398dd	0.08769391
11	0xbf108663	-0.5645506
12	0xbf53b4a4	-0.8269751
13	0xbd522360	-0.051303267
14	0xbf6cf283	-0.92557544

linear3.weight f4 [1, 15]
0	0xbe0e9b6d	-0.13926478
1	0x3d92366a	0.07139285
2	0x3d094ebc	0.033522353
3	0x3dbf6e0a	0.0934716
4	0xbe5c7d69	-0.21532215
5	0x3e43ab66	0.19108352
6	0x3e71a4fe	0.23598096
7	0xbe35ff51	-0.17773177
8	0xbe0d5224	-0.13800865
9	0xbf15c0cc	-0.5849731
10	0x3f5bc994	0.8585446
11	0xbd9b9147	-0.07596069
12	0xbdb9e8ec	-0.090776294
13	0xbe01b838	-0.1266793
14	0x3da20670	0.07911384
